…
;float32&quot;) / 255.0) InputShape=trainX[1].shape . Construct the convolutional autoencoder . (encoder, decoder, autoencoder) = ConvAuto(InputShape,filters=(32,64,128),latentDim=256) opt = Adam(lr=1e-2) autoencoder.compile(loss=&quot;mse&quot;, optimizer=opt) . encoder.summary() . Model: &#34;encoder&#34; _________________________________________________________________ Layer (type) Output Shape Param # ================================================================= input_1 (InputLayer) [(None, 32, 32, 3)] 0 _________________________________________________________________ conv2d (Conv2D) (None, 16, 16, 32) 416 _________________________________________________________________ batch_normalization (BatchNo (None, 16, 16, 32) 128 _________________________________________________________________ conv2d_1 (Conv2D) (None, 8, 8, 64) 8256 _________________________________________________________________ batch_normalization_1 (Batch (None, 8, 8, 64) 256 _________________________________________________________________ conv2d_2 (Conv2D) (None, 4, 4, 128) 32896 _________________________________________________________________ batch_normalization_2 (Batch (None, 4, 4, 128) 512 _________________________________________________________________ flatten (Flatten) (None, 2048) 0 _________________________________________________________________ dense (Dense) (None, 256) 524544 ================================================================= Total params: 567,008 Trainable params: 566,560 Non-trainable params: 448 _________________________________________________________________ . decoder.summary() . Model: &#34;decoder&#34; _________________________________________________________________ Layer (type) Output Shape Param # ================================================================= input_2 (InputLayer) [(None, 256)] 0 _________________________________________________________________ dense_1 (Dense) (None, 2048) 526336 _________________________________________________________________ reshape (Reshape) (None, 4, 4, 128) 0 _________________________________________________________________ conv2d_transpose (Conv2DTran (None, 8, 8, 128) 65664 _________________________________________________________________ batch_normalization_3 (Batch (None, 8, 8, 128) 512 _________________________________________________________________ conv2d_transpose_1 (Conv2DTr (None, 16, 16, 64) 32832 _________________________________________________________________ batch_normalization_4 (Batch (None, 16, 16, 64) 256 _________________________________________________________________ conv2d_transpose_2 (Conv2DTr (None, 32, 32, 32) 8224 _________________________________________________________________ batch_normalization_5 (Batch (None, 32, 32, 32) 128 _________________________________________________________________ conv2d_transpose_3 (Conv2DTr (None, 32, 32, 3) 867 _________________________________________________________________ activation (Activation) (None, 32, 32, 3) 0 ================================================================= Total params: 634,819 Trainable params: 634,371 Non-trainable params: 448 _________________________________________________________________ . EPOCHS = 40 # batch size BS = 64 # train the convolutional autoencoder H = autoencoder.fit(trainX, trainX, validation_data=(testX, testX),epochs=EPOCHS,batch_size=BS) . Epoch 1/40 782/782 [==
…
